project/get_data/code/model/quant.tflite (tflite, 512832 bytes, 17 tensors)

dense_2/bias f2 [10]
0	0xa1e4	-0.011505
1	0x2a65	0.04996
2	0x9f50	-0.00714
3	0xab39	-0.05643
4	0x2a6f	0.05026
5	0xaa48	-0.04907
6	0x9ebc	-0.006577
7	0x2a70	0.0503
8	0x2a61	0.04984
9	0x2ae3	0.0538

dense_1/bias f2 [50]
0	0x2a5f	0.04977
1	0x19fc	0.002922
2	0x2b55	0.05728
3	0x2a2b	0.0482
4	0xaaf7	-0.0544
5	0x2150	0.010376
6	0x2838	0.03296
7	0x9b2f	-0.003508
8	0xa049	-0.00837
9	0x274c	0.0285
10	0x9dee	-0.00579
11	0x2a1e	0.0478
12	0x2080	0.00879
13	0x2a7f	0.05075
14	0x98b2	-0.002293
15	0x2893	0.03574
16	0xa19b	-0.01095
17	0x2a80	0.05078
18	0x93bf	-0.0009456
19	0xa2bd	-0.01316
20	0x2847	0.03342
21	0xa07a	-0.00874
22	0x9afa	-0.003407
23	0x29d4	0.04553
24	0xa0d9	-0.00947
25	0x29a5	0.0441
26	0x2a51	0.04935
27	0xaa3a	-0.04865
28	0x9f79	-0.007298
29	0x9b34	-0.003517
30	0xa21b	-0.011925
31	0xa031	-0.00819
32	0xa03a	-0.008255
33	0x2848	0.03345
34	0xa150	-0.010376
35	0x2b19	0.05545
36	0x2a3a	0.04865
37	0x2ac8	0.05298
38	0xa406	-0.01572
39	0xa05e	-0.00853
40	0x9e69	-0.00626
41	0x2a5e	0.04974
42	0xaaf6	-0.05438
43	0x2812	0.0318
44	0x27b5	0.0301
45	0xa0f1	-0.00965
46	0xa87e	-0.0351
47	0x2c4d	0.0672
48	0x28cf	0.03757
49	0x20fa	0.00972

dense/bias f2 [100]
0	0xa1b7	-0.01116
1	0xa14e	-0.01036
2	0xa032	-0.008194
3	0x2634	0.02423
4	0x1be8	0.00386
5	0xa047	-0.008354
6	0x29f3	0.04648
7	0xa0d1	-0.00941
8	0xa108	-0.00983
9	0x28e3	0.03818
10	0x29af	0.0444
11	0x16e0	0.001678
12	0x2ac1	0.05276
13	0x2965	0.04214
14	0xa210	-0.01184
15	0x28d5	0.03775
16	0xa2af	-0.013054
17	0x2b1b	0.0555
18	0xa0c6	-0.00932
19	0xa09f	-0.009026
20	0xa0af	-0.00915
21	0xa0c0	-0.00928
22	0xa111	-0.009895
23	0x9eeb	-0.006756
24	0x9fca	-0.007607
25	0x9d57	-0.005215
26	0xa016	-0.00798
27	0x9eaf	-0.006527
28	0xa21c	-0.01193
29	0xa84a	-0.0335
30	0xa22a	-0.01204
31	0x188e	0.002224
32	0x2a4d	0.04922
33	0xa04e	-0.00841
34	0x27c7	0.03038
35	0xa237	-0.01214
36	0xa0d0	-0.0094
37	0x2869	0.03445
38	0x9f96	-0.00741
39	0x1efb	0.006817
40	0x2504	0.01959
41	0x293c	0.0409
42	0xa0c9	-0.009346
43	0x27c5	0.03035
44	0x9ddd	-0.005726
45	0xa010	-0.007935
46	0xa056	-0.00847
47	0x2aa8	0.052
48	0xa08d	-0.00889
49	0xa139	-0.0102
50	0xa191	-0.01087
51	0x9fe4	-0.007706
52	0x1a44	0.00306
53	0x2a82	0.05084
54	0x2b0c	0.05505
55	0x9e5e	-0.006218
56	0xa156	-0.01042
57	0x82e3	-4.405e-05
58	0x1ce6	0.004784
59	0xa0c9	-0.009346
60	0xa063	-0.00857
61	0x9f31	-0.007023
62	0x2add	0.05362
63	0xa4ca	-0.0187
64	0xa045	-0.00834
65	0x213f	0.01025
66	0xa143	-0.01028
67	0xa026	-0.0081
68	0xa0f7	-0.0097
69	0x25e4	0.02301
70	0x9ffe	-0.007805
71	0x2a0a	0.04718
72	0x2868	0.03442
73	0x29bd	0.04483
74	0x21f6	0.01164
75	0x227d	0.01267
76	0x9ee8	-0.006744
77	0x2853	0.03378
78	0x25c1	0.02248
79	0x271e	0.0278
80	0xa134	-0.01016
81	0x9dfe	-0.00585
82	0x2747	0.02843
83	0x291e	0.03998
84	0xa179	-0.01069
85	0xa203	-0.01174
86	0x1bbb	0.003775
87	0xa086	-0.008835
88	0xa0ca	-0.00935
89	0x2a9a	0.05157
90	0xa0b6	-0.0092
91	0x2880	0.03516
92	0x9f38	-0.00705
93	0x19ec	0.002892
94	0xa073	-0.00869
95	0x9d3b	-0.005108
96	0x9fa3	-0.007458
97	0xa065	-0.00858
98	0xa044	-0.00833
99	0xa18f	-0.01086

Nvidia_Model/dense/MatMul f2 [100, 1152]
0	0x201a	0.00801
1	0xaa62	-0.04987
2	0xa7cb	-0.03044
3	0xa7d1	-0.03053
4	0xa352	-0.0143
5	0xa83b	-0.03305
6	0xa81f	-0.0322
7	0x2ca9	0.0728
8	0x252f	0.02025
9	0xaa3f	-0.0488
10	0xa50b	-0.0197
11	0xa2b4	-0.01309
12	0xa7a1	-0.0298
13	0x2c92	0.0714
14	0x2621	0.02394
15	0x2b0c	0.05505
16	0xaca5	-0.0726
17	0xa398	-0.01483
18	0xaa6b	-0.05014
19	0x1ee4	0.00673
20	0xaa58	-0.04956
21	0x2a62	0.04987
22	0x1884	0.002205
23	0x2c5a	0.068
24	0xa774	-0.02911
25	0xa374	-0.01456
26	0x2ccc	0.07495
27	0x2768	0.02893
28	0x2a54	0.04944
29	0xa1cb	-0.011314
30	0x2731	0.02809
31	0xa80f	-0.0317
32	0x27db	0.03069
33	0x28dd	0.038
34	0xaf3e	-0.11316
35	0xa825	-0.03238
36	0x29df	0.04587
37	0x2b04	0.0548
38	0xab06	-0.05487
39	0xa955	-0.04166
40	0x14fd	0.001218
41	0x1dcc	0.00566
42	0xa0ce	-0.009384
43	0x2b4d	0.05704
44	0x2451	0.01686
45	0x22cd	0.01328
46	0xa55f	-0.02098
47	0x25b9	0.02235
48	0xa42e	-0.01633
49	0xa4db	-0.01897
50	0x264c	0.0246
51	0x2b99	0.05936
52	0xa5cc	-0.02264
53	0x2ba7	0.05978
54	0x2b0d	0.05508
55	0x2a5c	0.04968
56	0x296e	0.04242
57	0x208e	0.008896
58	0x2cf3	0.07733
59	0xa955	-0.04166
60	0xa347	-0.01421
61	0xac4c	-0.06714
62	0xa1fc	-0.01169
63	0x2722	0.02786
64	0x22cd	0.01328
65	0x9047	-0.000522
66	0xa815	-0.0319
67	0x290a	0.03937
68	0xaecb	-0.10614
69	0x288a	0.03546
70	0x2653	0.0247
71	0xabc8	-0.0608
72	0x2ac7	0.05295
73	0x2431	0.01637
74	0x1e42	0.00611
75	0xa379	-0.014595
76	0xa80c	-0.03162
77	0x271d	0.02779
78	0x1c06	0.00393
79	0x9d97	-0.00546
80	0x9786	-0.001837
81	0x2550	0.02075
82	0x2c2b	0.0651
83	0x288e	0.03558
84	0xa763	-0.02885
85	0xa252	-0.012344
86	0x1e05	0.00588
87	0xac43	-0.0666
88	0xa632	-0.0242
89	0xa45f	-0.01707
90	0x2bb0	0.06006
91	0x20c7	0.00933
92	0x2cba	0.07385
93	0x2b36	0.05634
94	0x18ba	0.002308
95	0xa8e5	-0.03824
96	0xa7e8	-0.03088
97	0x2651	0.02467
98	0x2ab9	0.05252
99	0xa929	-0.0403
100	0x2812	0.0318
101	0xa390	-0.01477
102	0x9842	-0.002079
103	0xa2c6	-0.01323
104	0x2b08	0.05493
105	0x21fb	0.01168
106	0x2b56	0.0573
107	0xa8e0	-0.0381
108	0xac06	-0.06287
109	0x26f9	0.02724
110	0x2252	0.012344
111	0xa709	-0.02748
112	0x2ccf	0.07513
113	0x2d4f	0.08295
114	0x2c52	0.0675
115	0x257f	0.02147
116	0x2b1e	0.0556
117	0x291e	0.03998
118	0x2b6a	0.05792
119	0xa859	-0.03397
120	0x2c9a	0.0719
121	0x2839	0.033
122	0xa122	-0.010025
123	0xa5b6	-0.02231
124	0x2b7b	0.05844
125	0x2af5	0.05435
126	0xa9e4	-0.04602
127	0x2b16	0.05536
128	0xab81	-0.05862
129	0xa802	-0.0313
130	0x2836	0.0329
131	0x2b52	0.0572
132	0xa7b6	-0.03012
133	0x9d11	-0.004948
134	0x2da4	0.08813
135	0x2d92	0.08704
136	0xabf8	-0.06226
137	0x1939	0.00255
138	0x2992	0.04352
139	0xac78	-0.0698
140	0xa0ba	-0.00923
141	0x2ad2	0.05328
142	0x2a6d	0.0502
143	0xa2b4	-0.01309
144	0xa5c8	-0.02258
145	0xab06	-0.05487
146	0x259f	0.02196
147	0x25fa	0.02335
148	0x2968	0.04224
149	0x29d1	0.04544
150	0x1a07	0.002943
151	0x23e3	0.0154
152	0xafd8	-0.12256
153	0x2836	0.0329
154	0xa9ae	-0.04437
155	0x2ca3	0.07245
156	0xa799	-0.02968
157	0x2c65	0.06866
158	0x2758	0.02869
159	0xad07	-0.07855
160	0x2585	0.02156
161	0x29ca	0.04523
162	0xab1e	-0.0556
163	0xa6c4	-0.02643
164	0x2342	0.014175
165	0x231c	0.013885
166	0x2c0e	0.06335
167	0xa90c	-0.03943
168	0x201e	0.00804
169	0x1fdc	0.007675
170	0xa415	-0.01595
171	0xa9fc	-0.04675
172	0x2aa7	0.05197
173	0x27a9	0.02992
174	0xa151	-0.01038
175	0xa793	-0.02959
176	0x2c63	0.06854
177	0x28e7	0.0383
178	0xa7e8	-0.03088
179	0x1d82	0.00538
180	0x279c	0.02972
181	0x29b7	0.04465
182	0x24fc	0.01947
183	0x28da	0.0379
184	0x2430	0.01636
185	0xaa7e	-0.05072
186	0xa8f8	-0.03882
187	0x2925	0.0402
188	0x288f	0.0356
189	0x1b4e	0.003567
190	0x2cac	0.073
191	0x2d55	0.0833
192	0xae92	-0.10266
193	0xa9bb	-0.04477
194	0xa828	-0.03247
195	0xa4e0	-0.01904
196	0xaeca	-0.1061
197	0xa211	-0.01185
198	0x2a05	0.04703
199	0x1ca7	0.004543
200	0x295b	0.04184
201	0x2c3b	0.0661
202	0x2c19	0.064
203	0xac71	-0.0694
204	0x2c78	0.0698
205	0x2402	0.01566
206	0x20ab	0.00912
207	0xa747	-0.02843
208	0xa958	-0.04175
209	0xab09	-0.05496
210	0xaa72	-0.05035
211	0xacaf	-0.0732
212	0x1d71	0.005314
213	0xaa19	-0.04764
214	0x280c	0.03162
215	0xaa90	-0.05127
216	0x15a9	0.001382
217	0xaae1	-0.05374
218	0x2b91	0.0591
219	0xac8e	-0.07117
220	0x9c16	-0.00399
221	0xac8c	-0.07104
222	0x2826	0.0324
223	0xab25	-0.05582
224	0xa86b	-0.03452
225	0x2907	0.03928
226	0x2819	0.032
227	0xa28e	-0.0128
228	0xa6d9	-0.02675
229	0x2458	0.01697
230	0xa846	-0.0334
231	0x9f2c	-0.007004
232	0x26b0	0.02612
233	0x2568	0.02112
234	0x2653	0.0247
235	0xa8e9	-0.03836
236	0xace3	-0.07635
237	0x2be6	0.0617
238	0x280f	0.0317
239	0xab0b	-0.05502
240	0x2c70	0.06934
241	0xa7d0	-0.03052
242	0xa64d	-0.02461
243	0x2965	0.04214
244	0xa86c	-0.03455
245	0xa324	-0.01395
246	0x2a86	0.05096
247	0xab79	-0.05838
248	0x9d9e	-0.005486
249	0x29e7	0.0461
250	0x9a67	-0.003126
251	0xa948	-0.04126
252	0x28a3	0.03622
253	0x25d4	0.02277
254	0xa8e2	-0.03815
255	0x29e1	0.04593

Nvidia_Model/dense_1/MatMul f2 [50, 100]
0	0xacea	-0.0768
1	0xaa46	-0.049
2	0xa635	-0.02425
3	0x2899	0.03592
4	0xaf45	-0.1136
5	0xaef7	-0.1088
6	0xb0e4	-0.1528
7	0xa6a3	-0.02592
8	0x297a	0.0428
9	0x2c09	0.06305
10	0x2e16	0.0951
11	0x3126	0.1609
12	0xb10a	-0.1575
13	0xb072	-0.1389
14	0x30f4	0.1548
15	0x3195	0.1744
16	0xaec8	-0.10596
17	0xa7e0	-0.03076
18	0xac29	-0.065
19	0xb3b3	-0.2406
20	0xb220	-0.1914
21	0xad0e	-0.079
22	0x2f4c	0.114
23	0x224f	0.01232
24	0xad96	-0.0873
25	0xb257	-0.1981
26	0xb402	-0.2505
27	0xb016	-0.1277
28	0x278f	0.02953
29	0xa6f3	-0.02715
30	0x2cf6	0.0775
31	0xacee	-0.077
32	0x3058	0.1357
33	0x2e05	0.09406
34	0xb244	-0.1958
35	0xb172	-0.1702
36	0xb274	-0.2017
37	0x2c92	0.0714
38	0xb1c9	-0.1808
39	0xb177	-0.1708
40	0xae3a	-0.0973
41	0x2d8f	0.08685
42	0x3019	0.128
43	0x9e05	-0.00588
44	0xb16a	-0.1692
45	0xb2a3	-0.2074
46	0xadda	-0.09143
47	0xa6f9	-0.02724
48	0xa6b0	-0.02612
49	0x26e8	0.02698
50	0xb32e	-0.2244
51	0x2412	0.0159
52	0xad69	-0.08453
53	0xafdd	-0.12286
54	0x218d	0.01084
55	0xaae0	-0.0537
56	0xa72e	-0.02805
57	0xb2e8	-0.2158
58	0x2cba	0.07385
59	0x2fdc	0.1228
60	0xa984	-0.0431
61	0xa947	-0.04123
62	0x301e	0.1287
63	0xafcd	-0.1219
64	0xaff4	-0.12427
65	0x30d2	0.1506
66	0xa23a	-0.01216
67	0xb317	-0.2216
68	0x28c6	0.0373
69	0x9990	-0.002716
70	0xaee6	-0.1078
71	0xad9e	-0.08777
72	0xb18f	-0.1737
73	0x1eed	0.006763
74	0x25e6	0.02304
75	0x2e48	0.09814
76	0x2c65	0.06866
77	0x2b15	0.05533
78	0x2d9a	0.0875
79	0x31ce	0.1814
80	0xacb7	-0.07367
81	0xa811	-0.03177
82	0xb002	-0.1252
83	0xa613	-0.02373
84	0xae99	-0.1031
85	0x20bf	0.00927
86	0xade7	-0.0922
87	0xb3a3	-0.2386
88	0xb0ed	-0.1539
89	0x30a2	0.1448
90	0xb3b5	-0.2408
91	0x3141	0.1642
92	0xb380	-0.2344
93	0xae94	-0.1028
94	0xae42	-0.0978
95	0xb0c2	-0.1487
96	0xb257	-0.1981
97	0xb16f	-0.1698
98	0xb39a	-0.2375
99	0x27f5	0.03108
100	0x3184	0.1724
101	0x2f73	0.1164
102	0x3001	0.1251
103	0xafa3	-0.1193
104	0x323e	0.1951
105	0x2c27	0.0649
106	0x2baf	0.06003
107	0xb04a	-0.134
108	0xb23b	-0.1947
109	0xae1a	-0.09534
110	0x3111	0.1583
111	0xac39	-0.066
112	0x31fd	0.1871
113	0xb0f1	-0.1544
114	0xaead	-0.1043
115	0xaec0	-0.10547
116	0x2bcb	0.06088
117	0xafb0	-0.1201
118	0xaf07	-0.1098
119	0xb19b	-0.1752
120	0x2b3c	0.05652
121	0x2470	0.01733
122	0xac8f	-0.0712
123	0x2bcd	0.06094
124	0xaf83	-0.1174
125	0x21b7	0.01116
126	0x2593	0.02177
127	0x31dd	0.1832
128	0x28df	0.03806
129	0x284e	0.03363
130	0x2c63	0.06854
131	0x30fe	0.156
132	0xb046	-0.1335
133	0x28f2	0.03864
134	0xb0ae	-0.1462
135	0x2c13	0.06366
136	0x9945	-0.002573
137	0x3220	0.1914
138	0xaec6	-0.10583
139	0xb07d	-0.1403
140	0xa181	-0.01075
141	0x2c4b	0.0671
142	0xb10f	-0.1581
143	0x3252	0.1975
144	0x231c	0.013885
145	0x2d21	0.08014
146	0x325d	0.1989
147	0x1df9	0.005833
148	0xb05b	-0.1361
149	0xad24	-0.0803
150	0x2a4e	0.04926
151	0x2d1e	0.07996
152	0x31fc	0.187
153	0x2857	0.0339
154	0xb028	-0.1299
155	0xb224	-0.1919
156	0xb06a	-0.138
157	0xb04e	-0.1345
158	0xaade	-0.05365
159	0xaa21	-0.04788
160	0xa84f	-0.03366
161	0xaa01	-0.0469
162	0xade0	-0.0918
163	0xac06	-0.06287
164	0x25b8	0.02234
165	0x30dc	0.1519
166	0x3064	0.1372
167	0xb17f	-0.1718
168	0xaea9	-0.10406
169	0xb238	-0.1943
170	0x30fb	0.1556
171	0x2c80	0.0703
172	0x0ec5	0.0004132
173	0xae2d	-0.0965
174	0xb03c	-0.1323
175	0x30c9	0.1495
176	0xb170	-0.1699
177	0xad42	-0.08215
178	0xa819	-0.032
179	0x23ca	0.01521
180	0x31a5	0.1764
181	0xa24f	-0.01232
182	0xb1cb	-0.181
183	0xad54	-0.08325
184	0xafa9	-0.1197
185	0xb193	-0.1742
186	0x28d9	0.03787
187	0x2bed	0.06192
188	0x24c4	0.01862
189	0x3030	0.1309
190	0xaaa8	-0.052
191	0x2e10	0.0947
192	0x2ef1	0.10846
193	0x2c21	0.0645
194	0xb1f7	-0.1864
195	0xb114	-0.1587
196	0x314b	0.1654
197	0xac9d	-0.0721
198	0x2ee3	0.1076
199	0x28e7	0.0383
200	0xacae	-0.0731
201	0xb2a6	-0.2078
202	0x25dd	0.0229
203	0x23f7	0.01556
204	0x2df4	0.093
205	0xb131	-0.1622
206	0x2cb4	0.0735
207	0x2a60	0.0498
208	0xb32e	-0.2244
209	0x319a	0.175
210	0xa8c3	-0.0372
211	0x30d4	0.1509
212	0xa81d	-0.03214
213	0xa998	-0.0437
214	0xaf72	-0.11633
215	0x3167	0.1688
216	0x2ca8	0.07275
217	0xa789	-0.02943
218	0xb1cc	-0.1812
219	0xadfb	-0.09344
220	0x2942	0.04108
221	0xb2c1	-0.211
222	0x2c5d	0.0682
223	0x30fa	0.1555
224	0xafe8	-0.12354
225	0x9d24	-0.00502
226	0xb2a0	-0.207
227	0xacb6	-0.0736
228	0xac20	-0.06445
229	0xa873	-0.03476
230	0xaf23	-0.1115
231	0x20ad	0.00913
232	0x2cfa	0.07776
233	0xb182	-0.1721
234	0xafb0	-0.1201
235	0xb161	-0.1681
236	0xad04	-0.07837
237	0x2dac	0.0886
238	0xb1c1	-0.1798
239	0xb172	-0.1702
240	0x3219	0.1906
241	0xab6c	-0.05798
242	0xb321	-0.2228
243	0x2ae2	0.05377
244	0xafa2	-0.11926
245	0xb1c6	-0.1804
246	0x22bb	0.013145
247	0x30c5	0.149
248	0xb421	-0.258
249	0x2457	0.01695
250	0xb257	-0.1981
251	0xae2d	-0.0965
252	0xa980	-0.04297
253	0xa980	-0.04297
254	0xae1d	-0.0955
255	0xb3ad	-0.2399

Nvidia_Model/dense_2/MatMul f2 [10, 50]
0	0x2d54	0.08325
1	0x3268	0.2002
2	0x312e	0.1619
3	0x2a89	0.05106
4	0x334c	0.228
5	0xb4ca	-0.2993
6	0xb334	-0.2251
7	0xab5f	-0.0576
8	0xb065	-0.1373
9	0xb4ff	-0.3123
10	0xb18c	-0.1733
11	0x32b5	0.2096
12	0x8fa1	-0.0004656
13	0x9604	-0.001469
14	0x31a3	0.1761
15	0xafa0	-0.11914
16	0x3185	0.1725
17	0xb23a	-0.1946
18	0xb3c9	-0.2433
19	0xb431	-0.262
20	0x2f37	0.11273
21	0xb433	-0.2625
22	0x2e5c	0.09937
23	0xb029	-0.13
24	0x262c	0.02411
25	0xb026	-0.1296
26	0x2e2a	0.0963
27	0x2ea1	0.1036
28	0x34f6	0.31
29	0xa4e2	-0.01907
30	0x33cd	0.2438
31	0xb43e	-0.2651
32	0x3413	0.2546
33	0xad99	-0.08746
34	0xadbc	-0.0896
35	0x31e7	0.1844
36	0xad75	-0.08527
37	0xaca0	-0.07227
38	0x307f	0.1405
39	0x338f	0.2362
40	0x3061	0.1368
41	0xb14f	-0.1659
42	0xac58	-0.0679
43	0x3394	0.2368
44	0xb479	-0.2795
45	0xa771	-0.02907
46	0x9e13	-0.00593
47	0x2d03	0.0783
48	0x3309	0.2198
49	0x3479	0.2795
50	0xb479	-0.2795
51	0x2887	0.03537
52	0xabfb	-0.06235
53	0xb43e	-0.2651
54	0xb27c	-0.2026
55	0xb361	-0.2306
56	0x3206	0.1882
57	0xac2a	-0.06506
58	0xb49a	-0.2876
59	0x33de	0.2458
60	0xab13	-0.05527
61	0x3055	0.1354
62	0xb465	-0.2747
63	0x289b	0.03598
64	0xae08	-0.09424
65	0xac28	-0.06494
66	0xaf3a	-0.1129
67	0xa26d	-0.01255
68	0xa8f7	-0.0388
69	0x2f31	0.11237
70	0x2cd3	0.0754
71	0xaf5b	-0.1149
72	0x2855	0.03384
73	0xb1a8	-0.1768
74	0xae5b	-0.0993
75	0x35da	0.3657
76	0x2eb2	0.1046
77	0x2693	0.02568
78	0x3063	0.1371
79	0x345f	0.2732
80	0xb5d5	-0.3645
81	0xb2bd	-0.2106
82	0xb0fd	-0.1559
83	0x2da1	0.08795
84	0xa18f	-0.01086
85	0x3139	0.1632
86	0x3234	0.1938
87	0x34d9	0.303
88	0x345d	0.2727
89	0xb437	-0.2634
90	0xb4c0	-0.2969
91	0x353e	0.3276
92	0x28f3	0.03867
93	0x2b21	0.0557
94	0x275e	0.02878
95	0xb31b	-0.222
96	0x3466	0.275
97	0x2e85	0.10187
98	0xa86b	-0.03452
99	0x2b3e	0.05658
100	0xb1c2	-0.1799
101	0xb423	-0.2585
102	0xb276	-0.2019
103	0xb2f5	-0.2174
104	0xb46f	-0.277
105	0x2fcf	0.122
106	0xaeb8	-0.105
107	0x3366	0.2312
108	0xb26e	-0.2009
109	0xae77	-0.101
110	0xa675	-0.02522
111	0x3162	0.1682
112	0x2f0f	0.1103
113	0xb318	-0.2217
114	0x2742	0.02835
115	0x304c	0.1343
116	0xb0d9	-0.1515
117	0xb28a	-0.2043
118	0xb41d	-0.257
119	0x3474	0.2783
120	0xb1c9	-0.1808
121	0xb44c	-0.2686
122	0x34f8	0.3105
123	0x3466	0.275
124	0xb2f3	-0.2172
125	0x3219	0.1906
126	0xb250	-0.1973
127	0xabc1	-0.06058
128	0x3234	0.1938
129	0xb1b1	-0.1779
130	0xb50f	-0.3162
131	0xad20	-0.0801
132	0x2a82	0.05084
133	0xb26d	-0.2008
134	0xb204	-0.188
135	0x340e	0.2534
136	0x27a2	0.02982
137	0xb4c3	-0.2976
138	0xade7	-0.0922
139	0xb4d2	-0.3013
140	0x3326	0.2234
141	0xa517	-0.01988
142	0x2eb6	0.10486
143	0xb4a3	-0.2898
144	0xaeca	-0.1061
145	0x2c35	0.06573
146	0x33da	0.2454
147	0x3486	0.2827
148	0x349a	0.2876
149	0x3188	0.1729
150	0xb4c9	-0.299
151	0x9d0e	-0.004936
152	0xa9d2	-0.04547
153	0xaf95	-0.11847
154	0x34d6	0.3022
155	0x353f	0.328
156	0x2c2d	0.06525
157	0xb17c	-0.1714
158	0x3450	0.2695
159	0xaee3	-0.1076
160	0x3418	0.2559
161	0x3212	0.1897
162	0xac5b	-0.06805
163	0xa59b	-0.0219
164	0x2c65	0.06866
165	0x29f5	0.04654
166	0x321e	0.1912
167	0xaf65	-0.11554
168	0x2ee7	0.10785
169	0xaf22	-0.11145
170	0xb4d8	-0.3027
171	0x2e4c	0.0984
172	0x2883	0.03525
173	0xb3f4	-0.2485
174	0x3574	0.3408
175	0xab1e	-0.0556
176	0x2b59	0.0574
177	0xae03	-0.09393
178	0x335f	0.2303
179	0x34ae	0.2925
180	0x31bc	0.1792
181	0x35e3	0.368
182	0xa5e3	-0.023
183	0xb3bf	-0.2421
184	0x3162	0.1682
185	0x31a4	0.1763
186	0xa514	-0.01984
187	0x9f2a	-0.006996
188	0x339f	0.2382
189	0x34f1	0.3088
190	0x3305	0.2194
191	0xb0ce	-0.1501
192	0x34e5	0.306
193	0xb2c3	-0.2113
194	0xa8a1	-0.03616
195	0xaffe	-0.1249
196	0x34cf	0.3005
197	0x34ce	0.3003
198	0xb24e	-0.197
199	0x34b4	0.294
200	0x33a1	0.2384
201	0xb5cc	-0.3623
202	0x2ebb	0.10516
203	0x3537	0.326
204	0xa813	-0.03183
205	0x3017	0.1278
206	0x30d9	0.1515
207	0xafaa	-0.11975
208	0xb475	-0.2786
209	0x1c28	0.00406
210	0x3183	0.1722
211	0x34a0	0.289
212	0x30e9	0.1534
213	0x33c5	0.2428
214	0x23be	0.01512
215	0xaa06	-0.04706
216	0x2dee	0.09265
217	0x32a5	0.2076
218	0xb466	-0.275
219	0xb060	-0.1367
220	0xb2ea	-0.2161
221	0xb55c	-0.335
222	0x22bb	0.013145
223	0xaf37	-0.11273
224	0xb432	-0.2622
225	0x2ee4	0.10767
226	0xacb7	-0.07367
227	0xb272	-0.2014
228	0xb21e	-0.1912
229	0xb40d	-0.2532
230	0xac08	-0.063
231	0xb403	-0.2507
232	0xb45c	-0.2725
233	0xa50b	-0.0197
234	0xa966	-0.04218
235	0x3311	0.2208
236	0x344a	0.268
237	0xac8b	-0.071
238	0xb07c	-0.1401
239	0xb56b	-0.3386
240	0x2d8b	0.0866
241	0xa675	-0.02522
242	0xb1ca	-0.1809
243	0xb0a4	-0.145
244	0xaf29	-0.1119
245	0xb4ae	-0.2925
246	0xb4e6	-0.3062
247	0x2bee	0.06195
248	0x3319	0.2218
249	0x305a	0.136
250	0xb10d	-0.1578
251	0xb192	-0.1741
252	0xa4e9	-0.01918
253	0x1812	0.001987
254	0x2efc	0.10913
255	0xb273	-0.2015

Nvidia_Model/dense_3/MatMul f2 [1, 10]
0	0xb84e	-0.538
1	0x37e5	0.4934
2	0xb900	-0.625
3	0xb503	-0.3132
4	0x393c	0.6543
5	0xb924	-0.6426
6	0xb983	-0.689
7	0x355c	0.335
8	0x35de	0.3667
9	0x3352	0.2288

Nvidia_Model/conv2d/Conv2D f2 [24, 5, 5, 3]
0	0x943c	-0.001034
1	0x2985	0.04312
2	0xabf1	-0.06204
3	0xa00a	-0.00789
4	0xadcc	-0.0906
5	0x8c4d	-0.0002625
6	0xa6ff	-0.02733
7	0x27cc	0.03046
8	0xa88f	-0.0356
9	0x2a1b	0.0477
10	0x9274	-0.0007877
11	0x2a3b	0.04868
12	0xac3b	-0.0661
13	0xa809	-0.03152
14	0xa959	-0.04178
15	0x2732	0.0281
16	0x1953	0.0026
17	0xaa2e	-0.04828
18	0x2c2e	0.0653
19	0x291a	0.03986
20	0x256a	0.02115
21	0x2022	0.00807
22	0xadd0	-0.0908
23	0x2b9d	0.05948
24	0x99a4	-0.002754
25	0x2c61	0.0684
26	0x232c	0.01401
27	0x1fea	0.00773
28	0xa8a5	-0.0363
29	0xa839	-0.033
30	0xab99	-0.05936
31	0x2775	0.02913
32	0xaa04	-0.047
33	0x1c94	0.00447
34	0xaa6c	-0.05017
35	0xa98b	-0.0433
36	0xad68	-0.0845
37	0xa853	-0.03378
38	0xae0a	-0.09436
39	0x2d6a	0.0846
40	0x2c66	0.0687
41	0x29ed	0.0463
42	0x1fec	0.007736
43	0xaac3	-0.05283
44	0x1607	0.0014715
45	0xaca2	-0.0724
46	0xa41a	-0.01602
47	0x2c64	0.0686
48	0x27d0	0.03052
49	0xa7e3	-0.0308
50	0xa556	-0.02084
51	0xa8c0	-0.0371
52	0x25be	0.02243
53	0xab84	-0.05872
54	0xadef	-0.0927
55	0x2d8f	0.08685
56	0xaaba	-0.05255
57	0xa85d	-0.0341
58	0xaa7c	-0.05066
59	0xade1	-0.09186
60	0xa4f2	-0.01932
61	0xadbd	-0.08966
62	0xacb9	-0.0738
63	0x2bd1	0.06107
64	0x240f	0.01585
65	0xa71d	-0.02779
66	0x98b1	-0.00229
67	0xa708	-0.02747
68	0x2ce7	0.0766
69	0x27a7	0.02989
70	0xaca8	-0.07275
71	0x29d0	0.0454
72	0x9982	-0.00269
73	0x1f45	0.0071
74	0x2a26	0.04803
75	0x24ed	0.01924
76	0xacc1	-0.0743
77	0x287c	0.03503
78	0xad69	-0.08453
79	0x2bff	0.06247
80	0xa495	-0.0179
81	0xa6e4	-0.02692
82	0x2dae	0.08875
83	0x24db	0.01897
84	0xaf76	-0.1166
85	0x2b7b	0.05844
86	0x2dd5	0.0911
87	0xafe2	-0.12317
88	0x2e07	0.0942
89	0xacad	-0.07306
90	0x969b	-0.001613
91	0x9e1f	-0.005978
92	0xaac1	-0.05276
93	0xaa82	-0.05084
94	0x2e5e	0.0995
95	0xa103	-0.00979
96	0x279b	0.02971
97	0x2ee3	0.1076
98	0x2e7d	0.1014
99	0xb03f	-0.1327
100	0x23fe	0.01561
101	0xa825	-0.03238
102	0xae94	-0.1028
103	0x2736	0.02817
104	0x2535	0.02034
105	0xaf6c	-0.11597
106	0x2cf9	0.0777
107	0x1fd2	0.007637
108	0xaee2	-0.10754
109	0x2afa	0.0545
110	0xa95f	-0.04196
111	0xa025	-0.008095
112	0x292d	0.04044
113	0xabbb	-0.0604
114	0xafec	-0.1238
115	0x2c59	0.06793
116	0x2d6f	0.0849
117	0xafa5	-0.11945
118	0xaa05	-0.04703
119	0x25a6	0.02206
120	0xab62	-0.05768
121	0xa95e	-0.04193
122	0x2e21	0.09576
123	0x2365	0.01444
124	0xa035	-0.00822
125	0x2815	0.0319
126	0x29bb	0.04477
127	0x1e7c	0.006332
128	0xacdc	-0.0759
129	0xb022	-0.1292
130	0x2d19	0.07965
131	0xaa36	-0.04852
132	0xaf86	-0.11755
133	0xa74f	-0.02855
134	0x2e3d	0.0975
135	0x26fe	0.02731
136	0x2dde	0.0917
137	0x2988	0.0432
138	0xaa2d	-0.04825
139	0xa44c	-0.01678
140	0xab57	-0.05734
141	0x2a89	0.05106
142	0xa928	-0.04028
143	0xac29	-0.065
144	0x1cc7	0.004665
145	0x2e52	0.09875
146	0xad24	-0.0803
147	0xaf65	-0.11554
148	0xa209	-0.01179
149	0x2d25	0.0804
150	0x2a2f	0.0483
151	0x2d89	0.0865
152	0x2c6c	0.0691
153	0x97e4	-0.001926
154	0x2e38	0.09717
155	0x223d	0.012184
156	0x2c1a	0.0641
157	0xa744	-0.02838
158	0x26b9	0.02626
159	0xad7f	-0.0859
160	0x28dd	0.038
161	0xac7a	-0.06995
162	0x2d0e	0.079
163	0xa97d	-0.04288
164	0x2a9f	0.05173
165	0x2cdc	0.0759
166	0xab39	-0.05643
167	0xad0a	-0.07874
168	0xad66	-0.08435
169	0xab00	-0.0547
170	0xa818	-0.03198
171	0x1abd	0.00329
172	0xa071	-0.008675
173	0x2bc6	0.06073
174	0xae9d	-0.10333
175	0xa62a	-0.02408
176	0x2cf8	0.07764
177	0xaadc	-0.0536
178	0x9f75	-0.007282
179	0x9cf8	-0.004852
180	0xa5eb	-0.02312
181	0x2dd3	0.091
182	0x0ed9	0.000418
183	0xad92	-0.08704
184	0xa79f	-0.02977
185	0x2b53	0.05722
186	0xa94e	-0.04144
187	0xab18	-0.05542
188	0x2a2c	0.04822
189	0x285c	0.03406
190	0x2ea8	0.104
191	0x2d84	0.0862
192	0xa9d6	-0.0456
193	0x9ca2	-0.004524
194	0x2a53	0.0494
195	0x2172	0.010635
196	0x25e7	0.02306
197	0xa294	-0.01285
198	0xace3	-0.07635
199	0x2b5f	0.0576
200	0x20aa	0.00911
201	0x9e20	-0.00598
202	0xa042	-0.008316
203	0x24bd	0.01851
204	0xac4c	-0.06714
205	0x206a	0.00862
206	0xacf9	-0.0777
207	0xad3b	-0.0817
208	0xacf0	-0.07715
209	0x1a97	0.003218
210	0xac59	-0.06793
211	0x2431	0.01637
212	0x2ec4	0.1057
213	0x9553	-0.0013
214	0x26d0	0.02661
215	0xa73f	-0.0283
216	0x90be	-0.000579
217	0x2d31	0.0811
218	0xac1a	-0.0641
219	0x2c3a	0.06604
220	0xa3b9	-0.01508
221	0xa059	-0.00849
222	0x9e51	-0.00617
223	0x2e32	0.0968
224	0xac9d	-0.0721
225	0xaf9b	-0.11884
226	0x2d1d	0.0799
227	0xad97	-0.08734
228	0x2aab	0.0521
229	0x2d84	0.0862
230	0xa475	-0.01741
231	0xad91	-0.087
232	0x2ba3	0.05966
233	0xaacf	-0.0532
234	0xadbb	-0.08954
235	0x2c4a	0.067
236	0x2a87	0.051
237	0xae34	-0.0969
238	0x2646	0.0245
239	0x20c3	0.0093
240	0x2a36	0.04852
241	0xa25c	-0.01242
242	0xa15d	-0.010475
243	0xab61	-0.05765
244	0x9d17	-0.00497
245	0xa766	-0.0289
246	0xa631	-0.02419
247	0xaa82	-0.05084
248	0x24e9	0.01918
249	0xaa5a	-0.04962
250	0x2e0b	0.0944
251	0xac79	-0.0699
252	0xa5e7	-0.02306
253	0x2dc3	0.09
254	0x2ca3	0.07245
255	0xaf24	-0.1116

Nvidia_Model/conv2d_1/Conv2D f2 [36, 5, 5, 24]
0	0xa842	-0.03326
1	0x2a2c	0.04822
2	0xa90b	-0.0394
3	0x2d64	0.0842
4	0xac24	-0.0647
5	0xaa93	-0.05136
6	0x2d76	0.0853
7	0x242a	0.01627
8	0xa8c8	-0.03735
9	0xa851	-0.03372
10	0xa38f	-0.01476
11	0x24f2	0.01932
12	0xab44	-0.05676
13	0x208b	0.00887
14	0x28d2	0.03766
15	0x2767	0.02892
16	0xa9bd	-0.04483
17	0xa811	-0.03177
18	0x24de	0.01901
19	0x2447	0.01671
20	0x236a	0.01448
21	0xb0fd	-0.1559
22	0xab91	-0.0591
23	0xa839	-0.033
24	0x2678	0.02527
25	0x27f5	0.03108
26	0x295b	0.04184
27	0x2b8f	0.05905
28	0xa9c0	-0.04492
29	0xa391	-0.01478
30	0x2c00	0.0625
31	0x28ad	0.03653
32	0xa9fe	-0.0468
33	0x2501	0.01955
34	0xa7d5	-0.0306
35	0xa9f6	-0.04657
36	0x286f	0.03464
37	0x264c	0.0246
38	0x1ed3	0.006664
39	0xa1c0	-0.01123
40	0x29d6	0.0456
41	0x2356	0.01433
42	0x27e2	0.03079
43	0x2157	0.01043
44	0xab75	-0.05826
45	0xb011	-0.1271
46	0x2331	0.014046
47	0x2bc3	0.06064
48	0x28a4	0.03625
49	0x29a5	0.0441
50	0xa779	-0.02919
51	0x2c70	0.06934
52	0x277c	0.02924
53	0xa9cf	-0.04538
54	0xa131	-0.01014
55	0xa40e	-0.01584
56	0x99fb	-0.00292
57	0x2ba1	0.0596
58	0xa994	-0.04358
59	0x1f95	0.007404
60	0xaab3	-0.05234
61	0x25fc	0.02338
62	0x9fd4	-0.007645
63	0x272a	0.02798
64	0xab86	-0.05878
65	0x239d	0.01487
66	0x238e	0.014755
67	0xa0b4	-0.009186
68	0xa451	-0.01686
69	0xb0ad	-0.1461
70	0xaabf	-0.0527
71	0xa9df	-0.04587
72	0xa550	-0.02075
73	0xa982	-0.04303
74	0x27b2	0.03006
75	0x24ff	0.01952
76	0x17e7	0.001929
77	0x2370	0.01453
78	0x1c6d	0.004322
79	0xa5df	-0.02293
80	0xa893	-0.03574
81	0x204d	0.0084
82	0xabd3	-0.06113
83	0x20c7	0.00933
84	0xab28	-0.0559
85	0x1bdc	0.003838
86	0x2543	0.02055
87	0xa620	-0.02393
88	0xa3e9	-0.01545
89	0x2190	0.010864
90	0x2ad6	0.0534
91	0xa5aa	-0.02213
92	0x2b62	0.05768
93	0xaad6	-0.0534
94	0x9904	-0.002449
95	0x9f8b	-0.007366
96	0x295a	0.0418
97	0xaa33	-0.04843
98	0x28f8	0.03882
99	0x2c2c	0.0652
100	0x1e93	0.00642
101	0x9de1	-0.00574
102	0x27bc	0.03021
103	0x2bad	0.05997
104	0x2a77	0.0505
105	0x2936	0.0407
106	0x2a83	0.05087
107	0x2ae2	0.05377
108	0x1e1a	0.00596
109	0x2574	0.0213
110	0xa81d	-0.03214
111	0xa6c1	-0.02638
112	0x228b	0.01278
113	0xa9f6	-0.04657
114	0xac31	-0.0655
115	0x2754	0.02863
116	0x2a99	0.05154
117	0x2518	0.0199
118	0xa4c6	-0.01865
119	0x2b75	0.05826
120	0x1fd0	0.00763
121	0x2d1d	0.0799
122	0xa584	-0.02155
123	0x261f	0.02391
124	0xa663	-0.02495
125	0xac14	-0.0637
126	0xa13f	-0.01025
127	0x2c10	0.0635
128	0xa6e8	-0.02698
129	0xaa08	-0.04712
130	0x238b	0.01473
131	0x2991	0.0435
132	0x28d8	0.03784
133	0x9cb0	-0.004578
134	0x2c25	0.06476
135	0x1a5f	0.00311
136	0x286e	0.0346
137	0x288b	0.0355
138	0x23eb	0.015465
139	0xa854	-0.0338
140	0x9b4b	-0.003561
141	0xb137	-0.163
142	0xac1d	-0.0643
143	0x2049	0.00837
144	0xa97e	-0.0429
145	0x2d59	0.08356
146	0xa8f6	-0.03876
147	0x2a93	0.05136
148	0x28af	0.0366
149	0xa43c	-0.01654
150	0xa44c	-0.01678
151	0xa861	-0.0342
152	0x9839	-0.002062
153	0x29ef	0.04636
154	0x287d	0.03506
155	0xa8bf	-0.03708
156	0x2547	0.02061
157	0xa829	-0.0325
158	0x2bcc	0.0609
159	0x9258	-0.0007744
160	0x2538	0.02039
161	0x2a89	0.05106
162	0x2a19	0.04764
163	0xa972	-0.04254
164	0x28f5	0.03873
165	0xaf60	-0.11523
166	0x1d2b	0.005047
167	0x2c07	0.0629
168	0xa250	-0.01233
169	0xa736	-0.02817
170	0x9e39	-0.006077
171	0x2832	0.03278
172	0xa4d8	-0.01892
173	0x2ac4	0.05286
174	0x26e2	0.02689
175	0xa9e9	-0.04617
176	0xa046	-0.00835
177	0x2581	0.0215
178	0x29d7	0.04562
179	0x29b5	0.0446
180	0xa63e	-0.02438
181	0x29da	0.04572
182	0x1e83	0.00636
183	0x2a44	0.04895
184	0xaa12	-0.04742
185	0x2d6e	0.08484
186	0xa4c6	-0.01865
187	0x297a	0.0428
188	0xa158	-0.01044
189	0xb08e	-0.1423
190	0x254e	0.02072
191	0xa8a1	-0.03616
192	0x8c7f	-0.0002744
193	0xa5a0	-0.02197
194	0x296d	0.0424
195	0x2743	0.02837
196	0x999a	-0.002735
197	0xa76a	-0.02896
198	0xa941	-0.04105
199	0x2a3f	0.0488
200	0x21bb	0.01119
201	0x162a	0.001505
202	0xa194	-0.010895
203	0x256b	0.02116
204	0x2628	0.02405
205	0x2729	0.02797
206	0x2acc	0.0531
207	0x2c17	0.0639
208	0x2a88	0.05103
209	0x2bd8	0.06128
210	0x294f	0.04147
211	0xa6de	-0.02682
212	0xa75e	-0.02878
213	0xb05c	-0.1362
214	0x2857	0.0339
215	0x2621	0.02394
216	0x2417	0.01598
217	0x9ced	-0.00481
218	0x28f3	0.03867
219	0x2865	0.03433
220	0xaa63	-0.0499
221	0x1dee	0.00579
222	0xaaad	-0.05215
223	0x159a	0.001368
224	0xa6da	-0.02676
225	0xaa14	-0.0475
226	0xa16f	-0.01061
227	0x21b8	0.01117
228	0x26a8	0.026
229	0x28d6	0.03778
230	0x9afa	-0.003407
231	0x9d05	-0.0049
232	0x1c05	0.003925
233	0xa832	-0.03278
234	0xa70c	-0.02753
235	0xa083	-0.00881
236	0xa7a6	-0.02988
237	0xa59e	-0.02194
238	0x1732	0.001757
239	0xa4fa	-0.01944
240	0xa2f2	-0.013565
241	0xa81a	-0.03204
242	0x2c45	0.0667
243	0x1ffd	0.0078
244	0x8931	-0.0001584
245	0x2450	0.01685
246	0x282e	0.03265
247	0xa8cd	-0.0375
248	0xac90	-0.0713
249	0x2b79	0.05838
250	0xa392	-0.014786
251	0xa5cc	-0.02264
252	0x1d39	0.0051
253	0x1e8e	0.0064
254	0x22e3	0.01345
255	0xaa94	-0.0514

Nvidia_Model/conv2d_2/Conv2D f2 [48, 5, 5, 36]
0	0xa8c8	-0.03735
1	0x287d	0.03506
2	0x109e	0.0005636
3	0x20cf	0.00939
4	0xafaa	-0.11975
5	0x2858	0.03394
6	0xab39	-0.05643
7	0x2873	0.03476
8	0x20d8	0.00946
9	0xa116	-0.00993
10	0xa636	-0.02426
11	0xa513	-0.01982
12	0x2456	0.01694
13	0x2073	0.00869
14	0xa867	-0.0344
15	0x2413	0.01591
16	0xa833	-0.0328
17	0xa9d6	-0.0456
18	0x2038	0.00824
19	0x21d0	0.01135
20	0xa79f	-0.02977
21	0x24f8	0.01941
22	0xa9da	-0.04572
23	0xaa16	-0.04755
24	0xa8c8	-0.03735
25	0x20a5	0.00907
26	0x2490	0.01782
27	0xa568	-0.02112
28	0x9fd7	-0.007656
29	0xa858	-0.03394
30	0x28f5	0.03873
31	0x2791	0.02956
32	0xa3c4	-0.01517
33	0x29d7	0.04562
34	0x215e	0.01048
35	0x287d	0.03506
36	0x280c	0.03162
37	0x28f1	0.0386
38	0x26ba	0.02628
39	0x26f3	0.02715
40	0xa63b	-0.02434
41	0x29e1	0.04593
42	0xa63a	-0.02432
43	0xad69	-0.08453
44	0xaa0f	-0.04733
45	0x2569	0.02113
46	0x914a	-0.0006456
47	0x92db	-0.000837
48	0x298c	0.04333
49	0x28e1	0.03812
50	0x25b2	0.02225
51	0xa5dd	-0.0229
52	0xa440	-0.0166
53	0x2835	0.03287
54	0x235a	0.01436
55	0x9605	-0.00147
56	0x270d	0.02754
57	0xa637	-0.02428
58	0xa9f4	-0.0465
59	0x2821	0.03226
60	0xa86d	-0.03458
61	0x9c14	-0.003983
62	0xa5dd	-0.0229
63	0xa77e	-0.02927
64	0x21f7	0.01165
65	0xa91b	-0.0399
66	0x2861	0.0342
67	0x2154	0.01041
68	0x9c5f	-0.00427
69	0x2ae6	0.0539
70	0x2922	0.0401
71	0x2863	0.03427
72	0xa23a	-0.01216
73	0x247b	0.0175
74	0xa526	-0.02011
75	0x2601	0.02345
76	0x2afa	0.0545
77	0xa9b5	-0.0446
78	0x28bd	0.03702
79	0xa8a2	-0.0362
80	0xa626	-0.02402
81	0xa86a	-0.0345
82	0x1a14	0.002968
83	0xac9c	-0.072
84	0x24c0	0.01855
85	0xa8ea	-0.0384
86	0xa169	-0.01057
87	0xa7d6	-0.03061
88	0x2a81	0.0508
89	0xa918	-0.0398
90	0x2555	0.02083
91	0xac3d	-0.0662
92	0xa450	-0.01685
93	0xa8e2	-0.03815
94	0x9fa1	-0.00745
95	0x1ff8	0.007782
96	0x299d	0.04385
97	0x1f0f	0.006893
98	0x2830	0.0327
99	0xa83d	-0.0331
100	0x19e9	0.002886
101	0xa8a8	-0.03638
102	0xa47a	-0.01749
103	0xa8d5	-0.03775
104	0x1ff3	0.007763
105	0x240e	0.01584
106	0x15b4	0.001392
107	0x142d	0.0010195
108	0x2b61	0.05765
109	0x9401	-0.0009775
110	0xa616	-0.02377
111	0x216d	0.0106
112	0x1be8	0.00386
113	0x9e46	-0.006126
114	0x2e78	0.1011
115	0x21ea	0.01155
116	0x23b8	0.015076
117	0x2816	0.03192
118	0x2afe	0.05463
119	0xaa73	-0.05038
120	0xa2bd	-0.01316
121	0xa49c	-0.018
122	0xaaff	-0.05466
123	0xa95f	-0.04196
124	0x268c	0.02557
125	0x9431	-0.001023
126	0xa67d	-0.02534
127	0xa6fb	-0.02727
128	0xa0b1	-0.00916
129	0x158a	0.001352
130	0x2263	0.012474
131	0xa926	-0.04022
132	0xa8be	-0.03705
133	0x2ae0	0.0537
134	0xa79c	-0.02972
135	0xa5af	-0.0222
136	0x289c	0.036
137	0x263f	0.0244
138	0xa8b1	-0.03665
139	0x2919	0.03983
140	0x2ade	0.05365
141	0x25ac	0.02216
142	0x1abd	0.00329
143	0x2943	0.0411
144	0x2653	0.0247
145	0x291e	0.03998
146	0x12e5	0.0008416
147	0x2f0d	0.11017
148	0x2885	0.0353
149	0x202d	0.008156
150	0x2b9c	0.05945
151	0x1a72	0.003147
152	0xab13	-0.05527
153	0x25d4	0.02277
154	0xa747	-0.02843
155	0xad46	-0.0824
156	0xa076	-0.00871
157	0x210c	0.00986
158	0xaa25	-0.048
159	0xaa38	-0.04858
160	0x2998	0.0437
161	0x2b94	0.0592
162	0xa92d	-0.04044
163	0xa964	-0.0421
164	0x2466	0.01718
165	0xa387	-0.0147
166	0x2906	0.03925
167	0xa45f	-0.01707
168	0xa8a6	-0.03632
169	0x2a10	0.04736
170	0xa431	-0.01637
171	0xa7ba	-0.03018
172	0x8edb	-0.0004184
173	0xa37a	-0.0146
174	0x2692	0.02567
175	0x23cb	0.01522
176	0x1152	0.0006495
177	0xa9b3	-0.04453
178	0x2dc7	0.0903
179	0xa91d	-0.03995
180	0x272f	0.02806
181	0x21ab	0.01107
182	0x2857	0.0339
183	0xa856	-0.03387
184	0xaeb7	-0.1049
185	0x295e	0.04193
186	0xae43	-0.09784
187	0x2550	0.02075
188	0xaae7	-0.05392
189	0x9f40	-0.00708
190	0xaaa9	-0.05203
191	0xa1d6	-0.0114
192	0xa955	-0.04166
193	0xa7c8	-0.0304
194	0xa54a	-0.02066
195	0xa173	-0.01064
196	0x25fe	0.0234
197	0xa681	-0.0254
198	0xa364	-0.014435
199	0xab0f	-0.05515
200	0x1994	0.002724
201	0x2086	0.008835
202	0x9b45	-0.00355
203	0xa999	-0.04373
204	0x28fb	0.0389
205	0xa8aa	-0.03644
206	0xa21f	-0.011955
207	0x2995	0.0436
208	0xa421	-0.01613
209	0xa93b	-0.04086
210	0xa835	-0.03287
211	0xa544	-0.02057
212	0x9dd8	-0.005707
213	0xa984	-0.0431
214	0xada0	-0.0879
215	0xa8e1	-0.03812
216	0x26f1	0.02711
217	0x2adc	0.0536
218	0x271a	0.02774
219	0x280e	0.03168
220	0xa996	-0.04364
221	0xa39d	-0.01487
222	0x0e0a	0.0003686
223	0x2541	0.02052
224	0xa6de	-0.02682
225	0x2a58	0.04956
226	0x9601	-0.001466
227	0xa823	-0.03232
228	0xa43c	-0.01654
229	0x24cd	0.01875
230	0x2408	0.01575
231	0x1c26	0.00405
232	0x256e	0.02121
233	0x98cd	-0.002344
234	0x2018	0.007996
235	0x259c	0.02191
236	0xa084	-0.00882
237	0xa97e	-0.0429
238	0xa00e	-0.00792
239	0x2772	0.02908
240	0x1b57	0.003584
241	0x2a70	0.0503
242	0xa90f	-0.03952
243	0x260d	0.02364
244	0xa8fe	-0.039
245	0xa7ac	-0.02997
246	0xa8de	-0.03802
247	0x2390	0.01477
248	0xa8c0	-0.0371
249	0x23ff	0.01562
250	0xa58b	-0.02165
251	0x1291	0.0008016
252	0xa8de	-0.03802
253	0xa2a9	-0.01301
254	0xa430	-0.01636
255	0x2bf9	0.0623

Nvidia_Model/conv2d_3/Conv2D f2 [64, 3, 3, 48]
0	0xa4fa	-0.01944
1	0x2904	0.03918
2	0x22de	0.01341
3	0xa58c	-0.02167
4	0xace0	-0.0762
5	0x2697	0.02574
6	0x2d74	0.0852
7	0x2877	0.03488
8	0xaba7	-0.05978
9	0xa13c	-0.01022
10	0xac90	-0.0713
11	0x9da1	-0.005497
12	0x1fbc	0.007553
13	0x2693	0.02568
14	0xaa70	-0.0503
15	0xa7b2	-0.03006
16	0x2d4a	0.08264
17	0x9a86	-0.003185
18	0xaa37	-0.04855
19	0xaa03	-0.04697
20	0x2deb	0.09247
21	0xb16e	-0.1697
22	0x2793	0.02959
23	0x2d79	0.0855
24	0x300c	0.1265
25	0x9c9e	-0.00451
26	0x29d1	0.04544
27	0xaed3	-0.1066
28	0x2863	0.03427
29	0x1e25	0.006
30	0xaa75	-0.05045
31	0xa530	-0.02026
32	0x9f73	-0.007275
33	0xa9c4	-0.04504
34	0x2639	0.0243
35	0x2f2c	0.11206
36	0xa273	-0.012596
37	0x2e3a	0.0973
38	0x9ed7	-0.00668
39	0xafea	-0.12366
40	0x2cf1	0.0772
41	0xaf67	-0.11566
42	0x1563	0.001315
43	0xa708	-0.02747
44	0x3229	0.1925
45	0x9d33	-0.005077
46	0xa1d4	-0.01138
47	0x3006	0.1257
48	0xa9f3	-0.04648
49	0xaf98	-0.11865
50	0xaa0c	-0.04724
51	0xa81f	-0.0322
52	0x2503	0.01958
53	0xad50	-0.083
54	0xa8c8	-0.03735
55	0xa86a	-0.0345
56	0x18db	0.00237
57	0xa8f2	-0.03864
58	0xa472	-0.01736
59	0xa191	-0.01087
60	0x2844	0.03333
61	0x2ef0	0.1084
62	0x2b96	0.05927
63	0x9ffd	-0.0078
64	0x285d	0.0341
65	0xaa17	-0.04758
66	0xa97d	-0.04288
67	0xab77	-0.05832
68	0xa619	-0.02382
69	0x246a	0.01724
70	0x2936	0.0407
71	0x2449	0.01674
72	0x2d87	0.08636
73	0x2838	0.03296
74	0x9d11	-0.004948
75	0xa904	-0.03918
76	0x92c6	-0.000827
77	0x281a	0.03204
78	0x24e1	0.01906
79	0x2276	0.01262
80	0x1b79	0.003649
81	0x2e4a	0.09827
82	0x2c46	0.0668
83	0x2e7a	0.1012
84	0xa459	-0.01698
85	0xa331	-0.014046
86	0xa1fa	-0.01167
87	0xadd4	-0.09106
88	0x2e10	0.0947
89	0xae45	-0.09796
90	0xad37	-0.0815
91	0x29c1	0.04495
92	0x2c43	0.0666
93	0x2963	0.04208
94	0xacc9	-0.07477
95	0x2f91	0.1182
96	0xac94	-0.07153
97	0xad11	-0.07916
98	0x217d	0.01072
99	0xa823	-0.03232
100	0xa48e	-0.01779
101	0x2eaa	0.1041
102	0x28f9	0.03885
103	0x9f10	-0.006897
104	0xa945	-0.04117
105	0xa990	-0.04346
106	0xa612	-0.02371
107	0x256a	0.02115
108	0x2d03	0.0783
109	0xac7e	-0.0702
110	0x9d70	-0.00531
111	0x2d1c	0.07983
112	0xa040	-0.0083
113	0x2d15	0.0794
114	0xab11	-0.0552
115	0x2dc9	0.0904
116	0x290f	0.03952
117	0xb0aa	-0.1458
118	0xa69c	-0.02582
119	0xaac8	-0.05298
120	0xa37f	-0.01464
121	0xa8d2	-0.03766
122	0x29db	0.04575
123	0xa74e	-0.02853
124	0xa24c	-0.0123
125	0xaf66	-0.1156
126	0x28a1	0.03616
127	0xb29e	-0.2068
128	0x2d82	0.08606
129	0xad76	-0.0853
130	0x9c3d	-0.00414
131	0xacc8	-0.0747
132	0x2887	0.03537
133	0x2b62	0.05768
134	0xa440	-0.0166
135	0xa33c	-0.01413
136	0xa8ca	-0.0374
137	0x29ba	0.04474
138	0x251a	0.01993
139	0xa9d5	-0.04556
140	0x2d33	0.08124
141	0xa870	-0.03467
142	0x2771	0.02907
143	0xb002	-0.1252
144	0xa40c	-0.01581
145	0xa7e2	-0.03079
146	0xa9a3	-0.04404
147	0x29a6	0.04413
148	0x29e9	0.04617
149	0x2823	0.03232
150	0x2f8e	0.11804
151	0x28d7	0.0378
152	0xaa32	-0.0484
153	0x216b	0.01058
154	0x9cc7	-0.004665
155	0x2d07	0.07855
156	0x2b3d	0.05655
157	0x9da9	-0.005527
158	0xa2ee	-0.013535
159	0xa588	-0.0216
160	0x2b10	0.05518
161	0x2980	0.04297
162	0x25dd	0.0229
163	0x2cfc	0.0779
164	0x2a97	0.05148
165	0xa8b7	-0.03683
166	0xa9bf	-0.0449
167	0x2186	0.01079
168	0xa235	-0.01212
169	0x29cb	0.04526
170	0x2a55	0.04947
171	0x1ac0	0.003296
172	0x28d6	0.03778
173	0x12e8	0.000843
174	0x2c24	0.0647
175	0x2c02	0.0626
176	0xa2c4	-0.013214
177	0x29be	0.04486
178	0xa58a	-0.02164
179	0x29ce	0.04535
180	0x2d65	0.0843
181	0x969c	-0.001614
182	0x29b0	0.04443
183	0xa73a	-0.02823
184	0x28ee	0.0385
185	0xad1e	-0.07996
186	0xa44f	-0.01683
187	0x2b5e	0.05756
188	0x155c	0.001308
189	0xa676	-0.02524
190	0xa9f8	-0.04663
191	0x2bd2	0.0611
192	0xaba1	-0.0596
193	0xac7a	-0.06995
194	0xaa94	-0.0514
195	0xa99d	-0.04385
196	0xa90e	-0.0395
197	0xacbd	-0.07404
198	0x9f99	-0.00742
199	0x2abe	0.05267
200	0xab98	-0.05933
201	0xa7cb	-0.03044
202	0x2ec9	0.106
203	0x9f0b	-0.006878
204	0x2c7b	0.07
205	0xaa85	-0.05093
206	0x2865	0.03433
207	0xaa7d	-0.0507
208	0xa8df	-0.03806
209	0x2849	0.03348
210	0x9ec8	-0.006622
211	0xa69b	-0.0258
212	0x28c5	0.03726
213	0xaba7	-0.05978
214	0x2f08	0.10986
215	0x2dfe	0.0936
216	0xa910	-0.03955
217	0x9e72	-0.006294
218	0x27cb	0.03044
219	0xac99	-0.07184
220	0x1cec	0.004807
221	0x2c15	0.0638
222	0xa9c5	-0.04507
223	0xa609	-0.02357
224	0xa660	-0.0249
225	0xa843	-0.0333
226	0xae72	-0.1007
227	0x2779	0.02919
228	0x2346	0.014206
229	0xa74f	-0.02855
230	0x22d2	0.01332
231	0xad59	-0.08356
232	0x2666	0.025
233	0xa270	-0.01257
234	0x2b9b	0.05942
235	0xade6	-0.09216
236	0xaa9a	-0.05157
237	0x2799	0.02968
238	0xae0b	-0.0944
239	0x28bd	0.03702
240	0x2cfd	0.07794
241	0xa77b	-0.02922
242	0x2a96	0.05145
243	0xa5bf	-0.02245
244	0xac45	-0.0667
245	0x227f	0.01269
246	0xa0f4	-0.009674
247	0xa475	-0.01741
248	0x288b	0.0355
249	0x1e24	0.005997
250	0x2ccc	0.07495
251	0xab70	-0.0581
252	0xaa6d	-0.0502
253	0xaadd	-0.05362
254	0xa8bc	-0.037
255	0x1f9c	0.00743

Nvidia_Model/conv2d_4/Conv2D f2 [64, 3, 3, 64]
0	0x24a9	0.0182
1	0xac6a	-0.069
2	0xa042	-0.008316
3	0xa70c	-0.02753
4	0x2840	0.0332
5	0x24e0	0.01904
6	0xa97c	-0.04285
7	0xab53	-0.05722
8	0x256d	0.0212
9	0xa5c1	-0.02248
10	0x9efa	-0.006813
11	0x2500	0.01953
12	0xa5bc	-0.0224
13	0x29aa	0.04425
14	0x270a	0.0275
15	0xab0d	-0.05508
16	0xaa85	-0.05093
17	0xa190	-0.010864
18	0x275a	0.02872
19	0x2cb5	0.07355
20	0x2846	0.0334
21	0xabd8	-0.06128
22	0xa77a	-0.0292
23	0x995e	-0.00262
24	0xa6f7	-0.0272
25	0x9815	-0.001993
26	0x247a	0.01749
27	0xb00a	-0.1262
28	0xabaf	-0.06003
29	0x2a2e	0.04828
30	0xa87b	-0.035
31	0x24b1	0.01833
32	0xabfb	-0.06235
33	0xad23	-0.08026
34	0xad20	-0.0801
35	0x263d	0.02437
36	0x1597	0.001365
37	0xa7d6	-0.03061
38	0x2949	0.0413
39	0xad7e	-0.0858
40	0x2b69	0.0579
41	0xa535	-0.02034
42	0xa934	-0.04065
43	0xac95	-0.0716
44	0x29ef	0.04636
45	0x28c7	0.03732
46	0x22e6	0.01347
47	0x2902	0.03912
48	0x1def	0.005795
49	0x27dd	0.03072
50	0xa23a	-0.01216
51	0x28c4	0.03723
52	0x2568	0.02112
53	0x26bc	0.0263
54	0x2960	0.042
55	0x2ad1	0.05325
56	0xa878	-0.0349
57	0xac48	-0.0669
58	0xae22	-0.0958
59	0x9308	-0.0008583
60	0xab3e	-0.05658
61	0xa830	-0.0327
62	0xac4c	-0.06714
63	0x297e	0.0429
64	0xa8be	-0.03705
65	0x2d30	0.08105
66	0xa8fa	-0.03888
67	0x1799	0.001855
68	0x2bd0	0.06104
69	0x2a92	0.05133
70	0x247f	0.01756
71	0x286a	0.0345
72	0xa7a5	-0.02986
73	0x2c29	0.065
74	0xac63	-0.06854
75	0xa62c	-0.02411
76	0xa3e4	-0.01541
77	0x1402	0.000978
78	0xa741	-0.02834
79	0xaba4	-0.0597
80	0xab76	-0.0583
81	0xacce	-0.0751
82	0x2b61	0.05765
83	0x2729	0.02797
84	0xaa5e	-0.04974
85	0x25fb	0.02336
86	0x1c1e	0.00402
87	0xa4b8	-0.01843
88	0xb019	-0.128
89	0x2a77	0.0505
90	0xa20b	-0.0118
91	0xa94d	-0.0414
92	0xac42	-0.0665
93	0xa248	-0.01227
94	0x9d66	-0.005272
95	0xac74	-0.0696
96	0x2102	0.00978
97	0x2c1e	0.06433
98	0xaa2f	-0.0483
99	0xa8a1	-0.03616
100	0xaa62	-0.04987
101	0x2aa9	0.05203
102	0xa8e6	-0.03827
103	0x2248	0.01227
104	0x1ab5	0.003275
105	0x9dd7	-0.005703
106	0x27ef	0.03099
107	0xaa2b	-0.0482
108	0xa596	-0.02182
109	0x2642	0.02444
110	0x29c1	0.04495
111	0xab0d	-0.05508
112	0xac4e	-0.06726
113	0xaa2e	-0.04828
114	0x1e95	0.006428
115	0xa0f0	-0.00964
116	0xaa2f	-0.0483
117	0x168e	0.0016
118	0xa190	-0.010864
119	0x86c4	-0.00010324
120	0x2562	0.02103
121	0xabce	-0.06097
122	0xaa62	-0.04987
123	0xa9e3	-0.046
124	0x2881	0.0352
125	0xa86c	-0.03455
126	0x2c37	0.06586
127	0x27cd	0.03047
128	0x2d2e	0.08093
129	0x1fc8	0.0076
130	0x27c4	0.03033
131	0x2825	0.03238
132	0x9fd4	-0.007645
133	0x262c	0.02411
134	0x2c02	0.0626
135	0xac52	-0.0675
136	0x2ab7	0.05246
137	0xacc9	-0.07477
138	0xae79	-0.10114
139	0x268d	0.02559
140	0xaaa9	-0.05203
141	0x2539	0.0204
142	0x2a86	0.05096
143	0x9fad	-0.007496
144	0x2c36	0.0658
145	0x24ea	0.0192
146	0x2516	0.01987
147	0xa91b	-0.0399
148	0x221e	0.01195
149	0x2445	0.01668
150	0x1937	0.002546
151	0x2b64	0.05774
152	0xadc9	-0.0904
153	0x27a7	0.02989
154	0x2498	0.01794
155	0xa5d9	-0.02284
156	0x23a9	0.01496
157	0xab14	-0.0553
158	0xa8bf	-0.03708
159	0xaa35	-0.0485
160	0x2217	0.011894
161	0xa9ad	-0.04434
162	0x19d8	0.002853
163	0x1f99	0.00742
164	0x1ec4	0.006607
165	0x1f6c	0.007248
166	0x1d44	0.005142
167	0xae18	-0.0952
168	0x2645	0.02449
169	0xa69c	-0.02582
170	0x9af3	-0.003393
171	0xac94	-0.07153
172	0xa049	-0.00837
173	0x244e	0.01682
174	0xac31	-0.0655
175	0xa9ab	-0.04428
176	0xa988	-0.0432
177	0xa8ff	-0.03903
178	0x2ca6	0.07263
179	0xa85d	-0.0341
180	0xab84	-0.05872
181	0x9c4e	-0.004204
182	0xa303	-0.013695
183	0x1c1d	0.004017
184	0x2b94	0.0592
185	0xa101	-0.00977
186	0xa8cb	-0.03745
187	0xa60c	-0.02362
188	0x29ad	0.04434
189	0x2b03	0.05478
190	0x2c10	0.0635
191	0x2704	0.0274
192	0xac70	-0.06934
193	0x214a	0.01033
194	0x9c08	-0.003937
195	0xa52a	-0.02017
196	0x2bc5	0.0607
197	0xaa2d	-0.04825
198	0x2707	0.02745
199	0x2951	0.04153
200	0xa7ef	-0.03099
201	0xab58	-0.05737
202	0x28b7	0.03683
203	0x1a2a	0.00301
204	0x283a	0.03302
205	0xa507	-0.01964
206	0x2ad3	0.0533
207	0xaafc	-0.05457
208	0x29f2	0.04645
209	0x2c02	0.0626
210	0x2d6e	0.08484
211	0x29b1	0.04446
212	0x286d	0.03458
213	0xab72	-0.05817
214	0x281b	0.03207
215	0x1c14	0.003983
216	0x293c	0.0409
217	0x9250	-0.0007706
218	0xa2b1	-0.01307
219	0xb00c	-0.1265
220	0xa6e1	-0.02687
221	0xa514	-0.01984
222	0xac02	-0.0626
223	0xabae	-0.06
224	0xabc7	-0.06076
225	0xa68a	-0.02554
226	0xa9f8	-0.04663
227	0x2b9b	0.05942
228	0x225c	0.01242
229	0xaa42	-0.0489
230	0x2e4b	0.0983
231	0x2ba7	0.05978
232	0x2acb	0.05307
233	0x2a01	0.0469
234	0x2717	0.0277
235	0x1b7f	0.00366
236	0xa931	-0.04056
237	0x2c37	0.06586
238	0xac73	-0.0695
239	0x2628	0.02405
240	0x2c72	0.06946
241	0x2436	0.01645
242	0xaca0	-0.07227
243	0xac6d	-0.06915
244	0x1db7	0.00558
245	0xa803	-0.03134
246	0x299b	0.0438
247	0x2c8a	0.0709
248	0x2b69	0.0579
249	0xa5d7	-0.02281
250	0x2711	0.0276
251	0xa655	-0.02473
252	0xa6d9	-0.02675
253	0x250e	0.01974
254	0xac3a	-0.06604
255	0xaae4	-0.05383

Nvidia_Model/conv2d/BiasAdd;Nvidia_Model/conv2d/Conv2D;conv2d/bias f2 [24]
0	0x9be8	-0.00386
1	0x2184	0.01077
2	0x2211	0.01185
3	0x18fd	0.002436
4	0x1e31	0.006046
5	0x9686	-0.001593
6	0x2122	0.010025
7	0x144c	0.001049
8	0x9bcd	-0.003809
9	0x17df	0.001922
10	0x180e	0.00198
11	0x2119	0.00996
12	0xa068	-0.008606
13	0x9603	-0.001468
14	0x9066	-0.000537
15	0x960c	-0.001476
16	0x9ccd	-0.00469
17	0x2160	0.0105
18	0x9e69	-0.00626
19	0x1cdd	0.00475
20	0x940c	-0.000988
21	0xa271	-0.01258
22	0x8128	-1.764e-05
23	0x2496	0.01791

Nvidia_Model/conv2d_1/BiasAdd;Nvidia_Model/conv2d_1/Conv2D;conv2d_1/bias f2 [36]
0	0xa112	-0.0099
1	0x9f2c	-0.007004
2	0x1973	0.00266
3	0xac1f	-0.0644
4	0x97ef	-0.001937
5	0x148b	0.001109
6	0xa4b6	-0.0184
7	0x1e70	0.006287
8	0x9e0a	-0.005898
9	0x185c	0.002129
10	0xa163	-0.01052
11	0x22df	0.01342
12	0xa172	-0.010635
13	0xa0cc	-0.00937
14	0x226e	0.01256
15	0x9d49	-0.00516
16	0x9ede	-0.006706
17	0x1bee	0.003872
18	0xa14f	-0.01037
19	0x21fb	0.01168
20	0xa8aa	-0.03644
21	0xa3b4	-0.015045
22	0xa13b	-0.010216
23	0x99eb	-0.00289
24	0x1d26	0.005028
25	0x1dda	0.005714
26	0x1a4c	0.003075
27	0x1f1d	0.006947
28	0x93c2	-0.000947
29	0x943c	-0.001034
30	0x9f89	-0.00736
31	0x90b6	-0.000575
32	0xa121	-0.01002
33	0xa490	-0.01782
34	0xa9cb	-0.04526
35	0x1846	0.002087

Nvidia_Model/conv2d_2/BiasAdd;Nvidia_Model/conv2d_2/Conv2D;conv2d_2/bias f2 [48]
0	0x98ba	-0.002308
1	0xa302	-0.01369
2	0xa3ef	-0.015495
3	0x1828	0.00203
4	0x079d	0.00011617
5	0x2146	0.0103
6	0xa0c5	-0.009315
7	0xa389	-0.01472
8	0x1dcc	0.00566
9	0xa091	-0.00892
10	0x9f0b	-0.006878
11	0xa312	-0.01381
12	0xa0ca	-0.00935
13	0x1448	0.001045
14	0x1d21	0.00501
15	0xa17b	-0.010704
16	0xa185	-0.01078
17	0xa27d	-0.01267
18	0xa2c5	-0.01322
19	0xa570	-0.02124
20	0xa07c	-0.00876
21	0x1f56	0.007164
22	0xa472	-0.01736
23	0xa2f8	-0.01361
24	0xa662	-0.02493
25	0xa0d8	-0.00946
26	0x9237	-0.0007586
27	0x1c55	0.00423
28	0xa41d	-0.01607
29	0x9f47	-0.007107
30	0x205e	0.00853
31	0x9de3	-0.00575
32	0x1ff1	0.007755
33	0xa620	-0.02393
34	0x2557	0.02086
35	0xa5c6	-0.02255
36	0xa1b1	-0.011116
37	0xa39c	-0.01486
38	0x1fad	0.007496
39	0x95e1	-0.001435
40	0xa4c1	-0.01857
41	0x9cc2	-0.004646
42	0x1d0d	0.004932
43	0xa13e	-0.01024
44	0x8856	-0.0001323
45	0xa297	-0.01287
46	0x1ed6	0.006676
47	0xa929	-0.0403

Nvidia_Model/conv2d_3/BiasAdd;Nvidia_Model/conv2d_4/Conv2D;Nvidia_Model/conv2d_3/Conv2D;conv2d_3/bias f2 [64]
0	0xa051	-0.00843
1	0x1c4f	0.004208
2	0x9f05	-0.006855
3	0x9a94	-0.003212
4	0x2023	0.00808
5	0x18a7	0.002272
6	0xa21b	-0.011925
7	0x9cf6	-0.004845
8	0xa2dd	-0.013405
9	0x9d40	-0.005127
10	0x142b	0.001018
11	0x8d09	-0.0003073
12	0xa2ef	-0.01354
13	0x1f68	0.007233
14	0xa097	-0.008965
15	0xa0d1	-0.00941
16	0x1a5c	0.003105
17	0x19e6	0.00288
18	0x208f	0.0089
19	0x1c6b	0.004314
20	0x2036	0.008224
21	0x0ca3	0.000283
22	0xa096	-0.00896
23	0x1f8d	0.007374
24	0x95c8	-0.001411
25	0xa018	-0.007996
26	0xa1c2	-0.011246
27	0x9c1e	-0.00402
28	0x1c54	0.004227
29	0x0b78	0.0002279
30	0x1ba8	0.003738
31	0x9cb8	-0.00461
32	0xa099	-0.00898
33	0xa00b	-0.0079
34	0xa1de	-0.01146
35	0xa18d	-0.01084
36	0xa29f	-0.01293
37	0xa2aa	-0.013016
38	0xa26f	-0.012566
39	0xa43d	-0.01656
40	0x9e0c	-0.005905
41	0xa2fa	-0.013626
42	0xa5af	-0.0222
43	0x251d	0.01997
44	0x2323	0.01394
45	0x8c0d	-0.0002472
46	0xa267	-0.012505
47	0xa3af	-0.01501
48	0x9942	-0.002567
49	0xa43d	-0.01656
50	0xa286	-0.01274
51	0xa3ca	-0.01521
52	0xa178	-0.01068
53	0xa2fd	-0.01365
54	0x094c	0.0001616
55	0x9e12	-0.005928
56	0xa2be	-0.01317
57	0x2068	0.008606
58	0x9cf9	-0.004856
59	0xa1b6	-0.011154
60	0x9bcb	-0.003805
61	0x1c54	0.004227
62	0xa246	-0.01225
63	0xa133	-0.010155

Nvidia_Model/conv2d_4/BiasAdd;Nvidia_Model/conv2d_4/Conv2D;conv2d_4/bias f2 [64]
0	0x2132	0.01015
1	0xa282	-0.01271
2	0xa474	-0.0174
3	0xa380	-0.01465
4	0x1d49	0.00516
5	0xa1c7	-0.011284
6	0xa70e	-0.02756
7	0xa310	-0.013794
8	0x11d8	0.0007133
9	0xa359	-0.01435
10	0x1c6b	0.004314
11	0x1f99	0.00742
12	0x1ccd	0.00469
13	0xa601	-0.02345
14	0xa87b	-0.035
15	0xa4aa	-0.01822
16	0xa4f8	-0.01941
17	0xa40c	-0.01581
18	0xa27d	-0.01267
19	0x2043	0.00832
20	0x200f	0.00793
21	0xa28d	-0.012794
22	0xa3c9	-0.015205
23	0x210e	0.00987
24	0xa39f	-0.014885
25	0x20e1	0.00953
26	0xa5ae	-0.02219
27	0x210a	0.00984
28	0xa4f6	-0.01938
29	0xa06f	-0.00866
30	0x218a	0.01082
31	0x1936	0.002544
32	0x1dc1	0.00562
33	0xa3a1	-0.0149
34	0x22fb	0.01363
35	0x9bc6	-0.003796
36	0xa036	-0.008224
37	0xa22f	-0.01208
38	0xa3f0	-0.0155
39	0x1c47	0.004177
40	0xa8ca	-0.0374
41	0xa79b	-0.02971
42	0x95c4	-0.001408
43	0xa266	-0.0125
44	0x1e58	0.006195
45	0xa46a	-0.01724
46	0xa44b	-0.01677
47	0x9ae0	-0.003357
48	0x0b5a	0.0002244
49	0x1a8f	0.003202
50	0xa4dd	-0.019
51	0x1d5b	0.00523
52	0x1dde	0.00573
53	0x1b90	0.003693
54	0xa570	-0.02124
55	0x1a3b	0.003042
56	0x1b33	0.003515
57	0xa533	-0.02031
58	0xa4f8	-0.01941
59	0xa25b	-0.01241
60	0x2040	0.0083
61	0x20ba	0.00923
62	0xa0dc	-0.00949
63	0xa31c	-0.013885
